…
Build PEFT model with LoRA-MoE.
loading medical ckpt
Loading checkpoint shards:   0%|          | 0/4 [00:00<?, ?it/s]Loading checkpoint shards:  25%|â–ˆâ–ˆâ–Œ       | 1/4 [00:07<00:23,  7.97s/it]Loading checkpoint shards:  50%|â–ˆâ–ˆâ–ˆâ–ˆâ–ˆ     | 2/4 [00:16<00:16,  8.02s/it]Loading checkpoint shards:  75%|â–ˆâ–ˆâ–ˆâ–ˆâ–ˆâ–ˆâ–ˆâ–Œ  | 3/4 [00:23<00:07,  7.93s/it]Loading checkpoint shards: 100%|â–ˆâ–ˆâ–ˆâ–ˆâ–ˆâ–ˆâ–ˆâ–ˆâ–ˆâ–ˆ| 4/4 [00:25<00:00,  5.33s/it]Loading checkpoint shards: 100%|â–ˆâ–ˆâ–ˆâ–ˆâ–ˆâ–ˆâ–ˆâ–ˆâ–ˆâ–ˆ| 4/4 [00:25<00:00,  6.30s/it]
InternLM2ForCausalLM(
  (model): InternLM2Model(
    (tok_embeddings): Embedding(92544, 4096, padding_idx=2)
    (layers): ModuleList(
      (0): InternLM2DecoderLayer(
        (attention): InternLM2Attention(
          (wqkv): Linear(in_features=4096, out_features=6144, bias=False)
          (wo): Linear(in_features=4096, out_features=4096, bias=False)
          (rotary_emb): InternLM2RotaryEmbedding()
        )
        (feed_forward): InternLM2MLP(
          (w1): Linear(in_features=4096, out_features=14336, bias=False)
          (w3): Linear(in_features=4096, out_features=14336, bias=False)
          (w2): Linear(in_features=14336, out_features=4096, bias=False)
          (act_fn): SiLUActivation()
        )
        (attention_norm): InternLM2RMSNorm()
        (ffn_norm): InternLM2RMSNorm()
      )
      (1): InternLM2DecoderLayer(
        (attention): InternLM2Attention(
          (wqkv): Linear(in_features=4096, out_features=6144, bias=False)
          (wo): Linear(in_features=4096, out_features=4096, bias=False)
          (rotary_emb): InternLM2RotaryEmbedding()
        )
        (feed_forward): InternLM2MLP(
          (w1): Linear(in_features=4096, out_features=14336, bias=False)
          (w3): Linear(in_features=4096, out_features=14336, bias=False)
          (w2): Linear(in_features=14336, out_features=4096, bias=False)
          (act_fn): SiLUActivation()
        )
        (attention_norm): InternLM2RMSNorm()
        (ffn_norm): InternLM2RMSNorm()
      )
      (2): InternLM2DecoderLayer(
        (attention): InternLM2Attention(
          (wqkv): Linear(in_features=4096, out_features=6144, bias=False)
          (wo): Linear(in_features=4096, out_features=4096, bias=False)
          (rotary_emb): InternLM2RotaryEmbedding()
        )
        (feed_forward): InternLM2MLP(
          (w1): Linear(in_features=4096, out_features=14336, bias=False)
          (w3): Linear(in_features=4096, out_features=14336, bias=False)
          (w2): Linear(in_features=14336, out_features=4096, bias=False)
          (act_fn): SiLUActivation()
        )
        (attention_norm): InternLM2RMSNorm()
        (ffn_norm): InternLM2RMSNorm()
      )
      (3): InternLM2DecoderLayer(
        (attention): InternLM2Attention(
          (wqkv): Linear(in_features=4096, out_features=6144, bias=False)
          (wo): Linear(in_features=4096, out_features=4096, bias=False)
          (rotary_emb): InternLM2RotaryEmbedding()
        )
        (feed_forward): InternLM2MLP(
          (w1): Linear(in_features=4096, out_features=14336, bias=False)
          (w3): Linear(in_features=4096, out_features=14336, bias=False)
          (w2): Linear(in_features=14336, out_features=4096, bias=False)
          (act_fn): SiLUActivation()
        )
        (attention_norm): InternLM2RMSNorm()
        (ffn_norm): InternLM2RMSNorm()
      )
      (4): InternLM2DecoderLayer(
        (attention): InternLM2Attention(
          (wqkv): Linear(in_features=4096, out_features=6144, bias=False)
          (wo): Linear(in_features=4096, out_features=4096, bias=False)
          (rotary_emb): InternLM2RotaryEmbedding()
        )
        (feed_forward): InternLM2MLP(
          (w1): Linear(in_features=4096, out_features=14336, bias=False)
          (w3): Linear(in_features=4096, out_features=14336, bias=False)
          (w2): Linear(in_features=14336, out_features=4096, bias=False)
          (act_fn): SiLUActivation()
        )
        (attention_norm): InternLM2RMSNorm()
        (ffn_norm): InternLM2RMSNorm()
      )
      (5): InternLM2DecoderLayer(
        (attention): InternLM2Attention(
          (wqkv): Linear(in_features=4096, out_features=6144, bias=False)
          (wo): Linear(in_features=4096, out_features=4096, bias=False)
          (rotary_emb): InternLM2RotaryEmbedding()
        )
        (feed_forward): InternLM2MLP(
          (w1): Linear(in_features=4096, out_features=14336, bias=False)
          (w3): Linear(in_features=4096, out_features=14336, bias=False)
          (w2): Linear(in_features=14336, out_features=4096, bias=False)
          (act_fn): SiLUActivation()
        )
        (attention_norm): InternLM2RMSNorm()
        (ffn_norm): InternLM2RMSNorm()
      )
      (6): InternLM2DecoderLayer(
        (attention): InternLM2Attention(
          (wqkv): Linear(in_features=4096, out_features=6144, bias=False)
          (wo): Linear(in_features=4096, out_features=4096, bias=False)
          (rotary_emb): InternLM2RotaryEmbedding()
        )
        (feed_forward): InternLM2MLP(
          (w1): Linear(in_features=4096, out_features=14336, bias=False)
          (w3): Linear(in_features=4096, out_features=14336, bias=False)
          (w2): Linear(in_features=14336, out_features=4096, bias=False)
          (act_fn): SiLUActivation()
        )
        (attention_norm): InternLM2RMSNorm()
        (ffn_norm): InternLM2RMSNorm()
      )
      (7): InternLM2DecoderLayer(
        (attention): InternLM2Attention(
          (wqkv): Linear(in_features=4096, out_features=6144, bias=False)
          (wo): Linear(in_features=4096, out_features=4096, bias=False)
          (rotary_emb): InternLM2RotaryEmbedding()
        )
        (feed_forward): InternLM2MLP(
          (w1): Linear(in_features=4096, out_features=14336, bias=False)
          (w3): Linear(in_features=4096, out_features=14336, bias=False)
          (w2): Linear(in_features=14336, out_features=4096, bias=False)
          (act_fn): SiLUActivation()
        )
        (attention_norm): InternLM2RMSNorm()
        (ffn_norm): InternLM2RMSNorm()
      )
      (8): InternLM2DecoderLayer(
        (attention): InternLM2Attention(
          (wqkv): Linear(in_features=4096, out_features=6144, bias=False)
          (wo): Linear(in_features=4096, out_features=4096, bias=False)
          (rotary_emb): InternLM2RotaryEmbedding()
        )
        (feed_forward): InternLM2MLP(
          (w1): Linear(in_features=4096, out_features=14336, bias=False)
          (w3): Linear(in_features=4096, out_features=14336, bias=False)
          (w2): Linear(in_features=14336, out_features=4096, bias=False)
          (act_fn): SiLUActivation()
        )
        (attention_norm): InternLM2RMSNorm()
        (ffn_norm): InternLM2RMSNorm()
      )
      (9): InternLM2DecoderLayer(
        (attention): InternLM2Attention(
          (wqkv): Linear(in_features=4096, out_features=6144, bias=False)
          (wo): Linear(in_features=4096, out_features=4096, bias=False)
          (rotary_emb): InternLM2RotaryEmbedding()
        )
        (feed_forward): InternLM2MLP(
          (w1): Linear(in_features=4096, out_features=14336, bias=False)
          (w3): Linear(in_features=4096, out_features=14336, bias=False)
          (w2): Linear(in_features=14336, out_features=4096, bias=False)
          (act_fn): SiLUActivation()
        )
        (attention_norm): InternLM2RMSNorm()
        (ffn_norm): InternLM2RMSNorm()
      )
      (10): InternLM2DecoderLayer(
        (attention): InternLM2Attention(
          (wqkv): Linear(in_features=4096, out_features=6144, bias=False)
          (wo): Linear(in_features=4096, out_features=4096, bias=False)
          (rotary_emb): InternLM2RotaryEmbedding()
        )
        (feed_forward): InternLM2MLP(
          (w1): Linear(in_features=4096, out_features=14336, bias=False)
          (w3): Linear(in_features=4096, out_features=14336, bias=False)
          (w2): Linear(in_features=14336, out_features=4096, bias=False)
          (act_fn): SiLUActivation()
        )
        (attention_norm): InternLM2RMSNorm()
        (ffn_norm): InternLM2RMSNorm()
      )
      (11): InternLM2DecoderLayer(
        (attention): InternLM2Attention(
          (wqkv): Linear(in_features=4096, out_features=6144, bias=False)
          (wo): Linear(in_features=4096, out_features=4096, bias=False)
          (rotary_emb): InternLM2RotaryEmbedding()
        )
        (feed_forward): InternLM2MLP(
          (w1): Linear(in_features=4096, out_features=14336, bias=False)
          (w3): Linear(in_features=4096, out_features=14336, bias=False)
          (w2): Linear(in_features=14336, out_features=4096, bias=False)
          (act_fn): SiLUActivation()
        )
        (attention_norm): InternLM2RMSNorm()
        (ffn_norm): InternLM2RMSNorm()
      )
      (12): InternLM2DecoderLayer(
        (attention): InternLM2Attention(
          (wqkv): Linear(in_features=4096, out_features=6144, bias=False)
          (wo): Linear(in_features=4096, out_features=4096, bias=False)
          (rotary_emb): InternLM2RotaryEmbedding()
        )
        (feed_forward): InternLM2MLP(
          (w1): Linear(in_features=4096, out_features=14336, bias=False)
          (w3): Linear(in_features=4096, out_features=14336, bias=False)
          (w2): Linear(in_features=14336, out_features=4096, bias=False)
          (act_fn): SiLUActivation()
        )
        (attention_norm): InternLM2RMSNorm()
        (ffn_norm): InternLM2RMSNorm()
      )
      (13): InternLM2DecoderLayer(
        (attention): InternLM2Attention(
          (wqkv): Linear(in_features=4096, out_features=6144, bias=False)
          (wo): Linear(in_features=4096, out_features=4096, bias=False)
          (rotary_emb): InternLM2RotaryEmbedding()
        )
        (feed_forward): InternLM2MLP(
          (w1): Linear(in_features=4096, out_features=14336, bias=False)
          (w3): Linear(in_features=4096, out_features=14336, bias=False)
          (w2): Linear(in_features=14336, out_features=4096, bias=False)
          (act_fn): SiLUActivation()
        )
        (attention_norm): InternLM2RMSNorm()
        (ffn_norm): InternLM2RMSNorm()
      )
      (14): InternLM2DecoderLayer(
        (attention): InternLM2Attention(
          (wqkv): Linear(in_features=4096, out_features=6144, bias=False)
          (wo): Linear(in_features=4096, out_features=4096, bias=False)
          (rotary_emb): InternLM2RotaryEmbedding()
        )
        (feed_forward): InternLM2MLP(
          (w1): Linear(in_features=4096, out_features=14336, bias=False)
          (w3): Linear(in_features=4096, out_features=14336, bias=False)
          (w2): Linear(in_features=14336, out_features=4096, bias=False)
          (act_fn): SiLUActivation()
        )
        (attention_norm): InternLM2RMSNorm()
        (ffn_norm): InternLM2RMSNorm()
      )
      (15): InternLM2DecoderLayer(
        (attention): InternLM2Attention(
          (wqkv): Linear(in_features=4096, out_features=6144, bias=False)
          (wo): Linear(in_features=4096, out_features=4096, bias=False)
          (rotary_emb): InternLM2RotaryEmbedding()
        )
        (feed_forward): InternLM2MLP(
          (w1): Linear(in_features=4096, out_features=14336, bias=False)
          (w3): Linear(in_features=4096, out_features=14336, bias=False)
          (w2): Linear(in_features=14336, out_features=4096, bias=False)
          (act_fn): SiLUActivation()
        )
        (attention_norm): InternLM2RMSNorm()
        (ffn_norm): InternLM2RMSNorm()
      )
      (16): InternLM2DecoderLayer(
        (attention): InternLM2Attention(
          (wqkv): Linear(in_features=4096, out_features=6144, bias=False)
          (wo): Linear(in_features=4096, out_features=4096, bias=False)
          (rotary_emb): InternLM2RotaryEmbedding()
        )
        (feed_forward): InternLM2MLP(
          (w1): Linear(in_features=4096, out_features=14336, bias=False)
          (w3): Linear(in_features=4096, out_features=14336, bias=False)
          (w2): Linear(in_features=14336, out_features=4096, bias=False)
          (act_fn): SiLUActivation()
        )
        (attention_norm): InternLM2RMSNorm()
        (ffn_norm): InternLM2RMSNorm()
      )
      (17): InternLM2DecoderLayer(
        (attention): InternLM2Attention(
          (wqkv): Linear(in_features=4096, out_features=6144, bias=False)
          (wo): Linear(in_features=4096, out_features=4096, bias=False)
          (rotary_emb): InternLM2RotaryEmbedding()
        )
        (feed_forward): InternLM2MLP(
          (w1): Linear(in_features=4096, out_features=14336, bias=False)
          (w3): Linear(in_features=4096, out_features=14336, bias=False)
          (w2): Linear(in_features=14336, out_features=4096, bias=False)
          (act_fn): SiLUActivation()
        )
        (attention_norm): InternLM2RMSNorm()
        (ffn_norm): InternLM2RMSNorm()
      )
      (18): InternLM2DecoderLayer(
        (attention): InternLM2Attention(
          (wqkv): Linear(in_features=4096, out_features=6144, bias=False)
          (wo): Linear(in_features=4096, out_features=4096, bias=False)
          (rotary_emb): InternLM2RotaryEmbedding()
        )
        (feed_forward): InternLM2MLP(
          (w1): Linear(in_features=4096, out_features=14336, bias=False)
          (w3): Linear(in_features=4096, out_features=14336, bias=False)
          (w2): Linear(in_features=14336, out_features=4096, bias=False)
          (act_fn): SiLUActivation()
        )
        (attention_norm): InternLM2RMSNorm()
        (ffn_norm): InternLM2RMSNorm()
      )
      (19): InternLM2DecoderLayer(
        (attention): InternLM2Attention(
          (wqkv): Linear(in_features=4096, out_features=6144, bias=False)
          (wo): Linear(in_features=4096, out_features=4096, bias=False)
          (rotary_emb): InternLM2RotaryEmbedding()
        )
        (feed_forward): InternLM2MLP(
          (w1): Linear(in_features=4096, out_features=14336, bias=False)
          (w3): Linear(in_features=4096, out_features=14336, bias=False)
          (w2): Linear(in_features=14336, out_features=4096, bias=False)
          (act_fn): SiLUActivation()
        )
        (attention_norm): InternLM2RMSNorm()
        (ffn_norm): InternLM2RMSNorm()
      )
      (20): InternLM2DecoderLayer(
        (attention): InternLM2Attention(
          (wqkv): Linear(in_features=4096, out_features=6144, bias=False)
          (wo): Linear(in_features=4096, out_features=4096, bias=False)
          (rotary_emb): InternLM2RotaryEmbedding()
        )
        (feed_forward): InternLM2MLP(
          (w1): Linear(in_features=4096, out_features=14336, bias=False)
          (w3): Linear(in_features=4096, out_features=14336, bias=False)
          (w2): Linear(in_features=14336, out_features=4096, bias=False)
          (act_fn): SiLUActivation()
        )
        (attention_norm): InternLM2RMSNorm()
        (ffn_norm): InternLM2RMSNorm()
      )
      (21): InternLM2DecoderLayer(
        (attention): InternLM2Attention(
          (wqkv): Linear(in_features=4096, out_features=6144, bias=False)
          (wo): Linear(in_features=4096, out_features=4096, bias=False)
          (rotary_emb): InternLM2RotaryEmbedding()
        )
        (feed_forward): InternLM2MLP(
          (w1): Linear(in_features=4096, out_features=14336, bias=False)
          (w3): Linear(in_features=4096, out_features=14336, bias=False)
          (w2): Linear(in_features=14336, out_features=4096, bias=False)
          (act_fn): SiLUActivation()
        )
        (attention_norm): InternLM2RMSNorm()
        (ffn_norm): InternLM2RMSNorm()
      )
      (22): InternLM2DecoderLayer(
        (attention): InternLM2Attention(
          (wqkv): Linear(in_features=4096, out_features=6144, bias=False)
          (wo): Linear(in_features=4096, out_features=4096, bias=False)
          (rotary_emb): InternLM2RotaryEmbedding()
        )
        (feed_forward): InternLM2MLP(
          (w1): Linear(in_features=4096, out_features=14336, bias=False)
          (w3): Linear(in_features=4096, out_features=14336, bias=False)
          (w2): Linear(in_features=14336, out_features=4096, bias=False)
          (act_fn): SiLUActivation()
        )
        (attention_norm): InternLM2RMSNorm()
        (ffn_norm): InternLM2RMSNorm()
      )
      (23): InternLM2DecoderLayer(
        (attention): InternLM2Attention(
          (wqkv): Linear(in_features=4096, out_features=6144, bias=False)
          (wo): Linear(in_features=4096, out_features=4096, bias=False)
          (rotary_emb): InternLM2RotaryEmbedding()
        )
        (feed_forward): InternLM2MLP(
          (w1): Linear(in_features=4096, out_features=14336, bias=False)
          (w3): Linear(in_features=4096, out_features=14336, bias=False)
          (w2): Linear(in_features=14336, out_features=4096, bias=False)
          (act_fn): SiLUActivation()
        )
        (attention_norm): InternLM2RMSNorm()
        (ffn_norm): InternLM2RMSNorm()
      )
      (24): InternLM2DecoderLayer(
        (attention): InternLM2Attention(
          (wqkv): Linear(in_features=4096, out_features=6144, bias=False)
          (wo): Linear(in_features=4096, out_features=4096, bias=False)
          (rotary_emb): InternLM2RotaryEmbedding()
        )
        (feed_forward): InternLM2MLP(
          (w1): Linear(in_features=4096, out_features=14336, bias=False)
          (w3): Linear(in_features=4096, out_features=14336, bias=False)
          (w2): Linear(in_features=14336, out_features=4096, bias=False)
          (act_fn): SiLUActivation()
        )
        (attention_norm): InternLM2RMSNorm()
        (ffn_norm): InternLM2RMSNorm()
      )
      (25): InternLM2DecoderLayer(
        (attention): InternLM2Attention(
          (wqkv): Linear(in_features=4096, out_features=6144, bias=False)
          (wo): Linear(in_features=4096, out_features=4096, bias=False)
          (rotary_emb): InternLM2RotaryEmbedding()
        )
        (feed_forward): InternLM2MLP(
          (w1): Linear(in_features=4096, out_features=14336, bias=False)
          (w3): Linear(in_features=4096, out_features=14336, bias=False)
          (w2): Linear(in_features=14336, out_features=4096, bias=False)
          (act_fn): SiLUActivation()
        )
        (attention_norm): InternLM2RMSNorm()
        (ffn_norm): InternLM2RMSNorm()
      )
      (26): InternLM2DecoderLayer(
        (attention): InternLM2Attention(
          (wqkv): Linear(in_features=4096, out_features=6144, bias=False)
          (wo): Linear(in_features=4096, out_features=4096, bias=False)
          (rotary_emb): InternLM2RotaryEmbedding()
        )
        (feed_forward): InternLM2MLP(
          (w1): Linear(in_features=4096, out_features=14336, bias=False)
          (w3): Linear(in_features=4096, out_features=14336, bias=False)
          (w2): Linear(in_features=14336, out_features=4096, bias=False)
          (act_fn): SiLUActivation()
        )
        (attention_norm): InternLM2RMSNorm()
        (ffn_norm): InternLM2RMSNorm()
      )
      (27): InternLM2DecoderLayer(
        (attention): InternLM2Attention(
          (wqkv): Linear(in_features=4096, out_features=6144, bias=False)
          (wo): Linear(in_features=4096, out_features=4096, bias=False)
          (rotary_emb): InternLM2RotaryEmbedding()
        )
        (feed_forward): InternLM2MLP(
          (w1): Linear(in_features=4096, out_features=14336, bias=False)
          (w3): Linear(in_features=4096, out_features=14336, bias=False)
          (w2): Linear(in_features=14336, out_features=4096, bias=False)
          (act_fn): SiLUActivation()
        )
        (attention_norm): InternLM2RMSNorm()
        (ffn_norm): InternLM2RMSNorm()
      )
      (28): InternLM2DecoderLayer(
        (attention): InternLM2Attention(
          (wqkv): Linear(in_features=4096, out_features=6144, bias=False)
          (wo): Linear(in_features=4096, out_features=4096, bias=False)
          (rotary_emb): InternLM2RotaryEmbedding()
        )
        (feed_forward): InternLM2MLP(
          (w1): Linear(in_features=4096, out_features=14336, bias=False)
          (w3): Linear(in_features=4096, out_features=14336, bias=False)
          (w2): Linear(in_features=14336, out_features=4096, bias=False)
          (act_fn): SiLUActivation()
        )
        (attention_norm): InternLM2RMSNorm()
        (ffn_norm): InternLM2RMSNorm()
      )
      (29): InternLM2DecoderLayer(
        (attention): InternLM2Attention(
          (wqkv): Linear(in_features=4096, out_features=6144, bias=False)
          (wo): Linear(in_features=4096, out_features=4096, bias=False)
          (rotary_emb): InternLM2RotaryEmbedding()
        )
        (feed_forward): InternLM2MLP(
          (w1): Linear(in_features=4096, out_features=14336, bias=False)
          (w3): Linear(in_features=4096, out_features=14336, bias=False)
          (w2): Linear(in_features=14336, out_features=4096, bias=False)
          (act_fn): SiLUActivation()
        )
        (attention_norm): InternLM2RMSNorm()
        (ffn_norm): InternLM2RMSNorm()
      )
      (30): InternLM2DecoderLayer(
        (attention): InternLM2Attention(
          (wqkv): Linear(in_features=4096, out_features=6144, bias=False)
          (wo): Linear(in_features=4096, out_features=4096, bias=False)
          (rotary_emb): InternLM2RotaryEmbedding()
        )
        (feed_forward): InternLM2MLP(
          (w1): Linear(in_features=4096, out_features=14336, bias=False)
          (w3): Linear(in_features=4096, out_features=14336, bias=False)
          (w2): Linear(in_features=14336, out_features=4096, bias=False)
          (act_fn): SiLUActivation()
        )
        (attention_norm): InternLM2RMSNorm()
        (ffn_norm): InternLM2RMSNorm()
      )
      (31): InternLM2DecoderLayer(
        (attention): InternLM2Attention(
          (wqkv): Linear(in_features=4096, out_features=6144, bias=False)
          (wo): Linear(in_features=4096, out_features=4096, bias=False)
          (rotary_emb): InternLM2RotaryEmbedding()
        )
        (feed_forward): InternLM2MLP(
          (w1): Linear(in_features=4096, out_features=14336, bias=False)
          (w3): Linear(in_features=4096, out_features=14336, bias=False)
          (w2): Linear(in_features=14336, out_features=4096, bias=False)
          (act_fn): SiLUActivation()
        )
        (attention_norm): InternLM2RMSNorm()
        (ffn_norm): InternLM2RMSNorm()
      )
    )
    (norm): InternLM2RMSNorm()
  )
  (output): Linear(in_features=4096, out_features=92544, bias=False)
)
trainable params: 19647488 || all params: 7757356032 || trainable%: 0.25327557377735166
Language decoder initialized.
Add VISION TAG ("<Img>" and "</Img>") for modality image.
Octavius Modalities: ['image']
Octavius 2D projection layer initialized.
Signal processing module initialized.
Clinical readings processing module initialized.
Demographics MLP encoder initialized.
…
